Senior Design Project II/thalassemia/model.pth (torch, 465578 bytes, 10 tensors)

conv1.weight f4 [32, 1, 3]
000000 d4 5b 08 bf bc 5d 1a 3e 3e 29 c7 be cd aa 81 be
       -0.5326512 0.1507482 -0.38898653 -0.25325623
000010 b9 0e 3f bc 26 80 d1 3e a2 d3 c7 be 8c 2d be be
       -0.011661225 0.40918082 -0.3902865 -0.37144125
000020 96 71 15 3f 6e dc c0 3d e5 86 b4 3e 4b 76 d8 be
       0.58376443 0.094170436 0.35259166 -0.4227775
000030 4a 84 a2 be 2a 21 64 3e 44 32 9e bc 0e 35 25 be
       -0.31741554 0.22278276 -0.019311078 -0.1613352
000040 18 e5 e3 3e 36 16 1c 3f 16 20 88 bd 7b 1e c8 3e
       0.44510722 0.6097139 -0.06646745 0.39085755
000050 94 75 17 bf 6b 4f c1 be a4 a8 70 be 0f e6 b7 3e
       -0.59163785 -0.37755904 -0.23501831 0.35917708
000060 0a 04 0d bf 14 8c 48 be cf 48 f6 3e 30 77 3f 3e
       -0.5508429 -0.19584686 0.48102424 0.1869781
000070 fd ec 3d 3b a7 ca 0d 3e d1 6a 04 bd 4e 68 10 3f
       0.0028980367 0.13846837 -0.03232843 0.56409156
000080 68 df b6 3e 7c a7 2f be 04 8e ed bc 76 c0 1e be
       0.3571732 -0.17153734 -0.028998382 -0.15503106
000090 9d 29 88 bc c9 90 ab 3e f6 c9 12 3f 00 6c 06 3f
       -0.016621405 0.335089 0.5733942 0.52508545
0000a0 da 19 08 3e 3e ff bf be 08 30 d4 3c fd da 07 bf
       0.13291112 -0.37499422 0.02590181 -0.53068525
0000b0 0d ca e1 be 7a ed 8f be 1b 44 90 bd 3a 2d 26 be
       -0.44099465 -0.28110868 -0.0704424 -0.1622819
0000c0 1c da ce bd 64 51 15 3f e1 8c 48 3e 8e 90 33 be
       -0.10100195 0.5832732 0.19584991 -0.17535612
0000d0 6b 30 89 3e c4 15 9f be c6 a9 42 bd 4a d3 08 3f
       0.26794752 -0.31071293 -0.04752519 0.534474
0000e0 37 50 13 3f 6a 92 7f 3d d0 f7 df be a0 72 19 3f
       0.57544273 0.06239549 -0.43743753 0.5994053
0000f0 be f9 9e 3e 23 c3 42 3e 20 03 05 bf 9b df 00 bf
       0.31049913 0.19019751 -0.51957893 -0.50341195
000100 d6 98 36 3b e3 12 34 3e 50 30 00 3f e0 89 08 3f
       0.0027862093 0.1758533 0.5007372 0.5333538
000110 53 8b bd be fb 9d e0 be ca bc 0d 3e 2d fc bf be
       -0.37020358 -0.4387053 0.13841549 -0.37497082
000120 65 dd 84 be 07 5a 51 3e 26 f0 64 be a6 00 12 bf
       -0.2595016 0.20444499 -0.22357234 -0.5703224
000130 92 e9 23 be d7 71 83 be d0 6b f4 3e 0b 3b e6 be
       -0.16007069 -0.2567279 0.47738504 -0.4496692
000140 2c e2 68 3e 7f 26 11 3f 8d 7f 8b be 12 63 d1 3e
       0.22742528 0.56699365 -0.2724575 0.40895897
000150 34 4f a1 3d d3 11 96 3e 26 d0 0a 3f 4b a5 c1 3e
       0.07876435 0.29310474 0.5422386 0.3782142
000160 06 ef 61 3d 2f a8 14 3f 9f c3 8d 3e 54 d6 cb be
       0.05515959 0.5806913 0.2768831 -0.39811957
000170 57 eb 94 be f6 2e 06 3f f7 d8 15 3f a4 70 06 3f
       -0.290858 0.52415407 0.5853419 0.52515626

conv1.bias f4 [32]
000000 8e 26 b7 be 1c ea de 3b 56 5e 0f 3d 1d 12 2e be
       -0.35771602 0.0068028104 0.035002075 -0.16999097
000010 36 7e 84 be 5b 23 52 be 62 86 c8 be 12 37 52 3e
       -0.2587754 -0.205213 -0.39165026 0.2052882
000020 24 e5 08 3e 8d c1 56 3e af d5 1c be 9f 0f e7 3d
       0.1336866 0.20972271 -0.15315889 0.11282276
000030 43 9a 03 bf b7 33 aa 3e 89 c6 84 3e 92 45 d4 3e
       -0.5140726 0.3324258 0.2593272 0.41459328
000040 94 83 03 3f 23 d8 03 be 4b d3 09 3f 0a b1 13 3f
       0.5137265 -0.12875418 0.5383803 0.57692015
000050 2d 1b b2 be bf cd 3a 3e 5f 77 03 bf f7 82 0a bf
       -0.34786358 0.18242548 -0.5135402 -0.54106086
000060 82 66 be 3e 99 7e b3 bd f0 df be 3e f3 b4 6e 3e
       0.37187582 -0.08764381 0.37280226 0.23311214
000070 08 2a 85 3e 49 26 b4 3e 88 7c ca 3d f5 4a 9d 3d
       0.2600863 0.3518546 0.09887034 0.076803125

conv1x1.weight f4 [64, 32, 1]
000000 3b a4 14 be 88 84 08 bd 6e fd d3 bd 82 d9 e7 3c
       -0.14515774 -0.033329517 -0.10351072 0.028301958
000010 76 0b 40 3d be 7b 96 3d c2 b3 4e be 16 63 13 be
       0.04688593 0.07347821 -0.2018576 -0.14393267
000020 c2 9e 84 3d 7c 38 b2 bd d5 84 ff bd 76 41 7b bd
       0.06475593 -0.0870218 -0.124765076 -0.061341725
000030 00 46 aa bd 8d 1b 82 bd 7b b9 b8 ba 35 b1 90 bd
       -0.08314133 -0.06352911 -0.0014093363 -0.070650496
000040 96 6a 6c bd 0d 77 e2 3d 3f 89 69 3d e5 42 1b 3e
       -0.057718836 0.110578634 0.057015654 0.15162237
000050 d6 47 27 be 2f a2 b7 bc 8c 45 74 3c a0 c8 94 3d
       -0.16335997 -0.022416202 0.014909159 0.07264829
000060 4b 11 18 be c2 cf b7 bd f8 bb a2 3d 34 30 b4 bd
       -0.14850347 -0.089751735 0.079460084 -0.087982565
000070 de ba 49 3e c8 d6 46 3e c9 f5 0d be 13 bd c6 3d
       0.1970019 0.1941787 -0.13863291 0.09704032
000080 55 a3 c9 3c b2 f5 98 3c 27 06 83 bd a6 92 02 be
       0.024614016 0.018671844 -0.06397658 -0.12751254
000090 aa d1 e2 bd 41 5f 33 be 01 fb 02 3e 05 56 7a bd
       -0.110751465 -0.17516805 0.12791063 -0.06111719
0000a0 f6 a1 5c bd 21 af 2a 3e 00 29 44 3e 69 03 99 3d
       -0.053865395 0.16668369 0.19156265 0.074713536
0000b0 5f 1a d2 3d 0d 9d a8 bd 3b 7e f9 bb df 73 35 bc
       0.10258936 -0.0823308 -0.007613925 -0.011074989
0000c0 15 ae a4 3d 37 c4 d6 3d 27 71 48 3d e4 80 1e bc
       0.08041016 0.10486644 0.048936035 -0.009674285
0000d0 db 8a e9 bd 68 fd 14 3e 53 38 fc 3d f7 38 f3 3d
       -0.11403438 0.14549792 0.123154305 0.118760996
0000e0 24 9b 12 be 99 6e df 3c 99 ef 10 be c9 e7 33 3d
       -0.14316994 0.027274417 -0.14153899 0.04392222
0000f0 7a 88 35 bd ac d6 e6 bd e7 e4 20 bd 8c 6e 79 bd
       -0.044319607 -0.11271414 -0.0392808 -0.06089644
000100 22 c3 ff 3d 3d e0 6c bd a1 f5 af 3d c3 0c 07 3e
       0.124883905 -0.057831038 0.08591772 0.13188462
000110 44 f1 2c 3d 01 ad 48 3e b6 6a 08 3e c7 e9 92 bd
       0.042222276 0.19597246 0.13321957 -0.07173496
000120 ee be 96 bd 36 61 81 3c 31 d8 fa 3d 16 8c 27 bd
       -0.07360636 0.015793424 0.122482665 -0.04090508
000130 17 0a fe bc 5b bb 3b be db 59 02 3d c0 10 1f 3e
       -0.03101067 -0.18333189 0.031823974 0.15533733
000140 2c f9 57 bc 9c 52 a1 bd 53 0e f2 3d 80 3b 41 3e
       -0.013181966 -0.078770846 0.118191384 0.18870354
000150 10 97 40 be a2 89 a0 3b 42 b5 84 3d 7b 64 84 b9
       -0.18807626 0.0048992196 0.06479885 -0.00025251866
000160 35 9e d7 3c 18 37 b0 3d ef d5 ca bd 96 1f f8 3c
       0.026320556 0.08604258 -0.09904086 0.030288499
000170 03 69 11 3e 7d d3 18 3e 0a 67 ff 3d 5e 9f a0 bd
       0.14200215 0.14924426 0.12470825 -0.07842897
000180 31 7d e2 3c 86 38 80 3d 2e 0c 35 3e 34 62 af bd
       0.027647587 0.06260781 0.17680427 -0.08563653
000190 cb 1c 94 3d b5 b4 61 ba 56 8b db bd dc 62 0a 3e
       0.07232054 -0.00086099963 -0.107199356 0.13514274
0001a0 a7 b1 02 3e 68 e1 a4 bd 19 5a 12 3e 6e ff 5e 3c
       0.12763081 -0.08050805 0.14292182 0.013610704
0001b0 7e c9 f7 3d 22 35 fa 3d a0 f9 ce 3c dd 9b 09 3e
       0.120989785 0.122171655 0.025265515 0.13438363
0001c0 5e 52 e4 3d 1e 6a 9d 3d 35 08 13 bc 19 7e b0 bd
       0.11148523 0.07686256 -0.008974125 -0.08617801
0001d0 66 4d 90 bc 1e 08 ae 3d 55 7b 83 bd e3 91 0a be
       -0.017615031 0.08497642 -0.06420008 -0.13532214
0001e0 ad ad 1e be c1 7e 98 3c 03 79 c3 3d cd 10 18 be
       -0.1549594 0.018615128 0.095445655 -0.14850159
0001f0 28 34 9c 3d ec eb bd bd 53 5b 0a 3e f7 57 f8 bd
       0.076271355 -0.09273514 0.135114 -0.12126153
000200 0b d3 dc bd bb 06 1c 3d cf ca 78 bd 56 11 2a 3d
       -0.10782441 0.038092356 -0.06074029 0.04152044
000210 04 74 f4 3d 8f 30 bb 3c 11 44 ac 3d 8e ef 0b bd
       0.11936191 0.022850303 0.0841142 -0.034164004
000220 c9 55 e0 bd d0 4b b3 bd a8 7c 90 bc 8b 7e fc 3d
       -0.10953862 -0.087546945 -0.017637566 0.12328824
000230 51 5d de 3d 47 ad cf 3c d1 a5 13 be 92 04 11 3d
       0.108576424 0.02535118 -0.14418723 0.03540475
000240 34 cd 56 bd 3b 79 71 3c 1f 82 fc 3c e1 a8 05 3e
       -0.05244179 0.014738376 0.030823765 0.13052703
000250 c2 a3 40 3d aa 65 aa bd 47 99 ab bd 98 44 e9 bd
       0.04703117 -0.08320172 -0.08378845 -0.11390036
000260 f9 16 b3 bb 03 27 66 3d 9d cd 61 3c 2f 7f 90 3d
       -0.005465385 0.05618955 0.013781932 0.07055508
000270 e9 e2 10 bd e4 5a 51 3d 46 8e 12 3e bd f8 42 3d
       -0.03537265 0.05111207 0.14312086 0.047600497
000280 ea 5f 80 bd 6d ab af bd 8f 8e 03 be ab 13 85 3d
       -0.06268294 -0.08577619 -0.1284735 0.06497892
000290 f5 cd 61 3d 47 17 1d 3e d4 45 ea bd 73 da 13 be
       0.055128057 0.15340911 -0.114391 -0.144388
0002a0 ed ba ae bd 26 87 9d bd b0 d3 33 3e aa 5f 85 bd
       -0.08531747 -0.07691793 0.17561221 -0.06512387
0002b0 e4 d7 c5 3c f6 46 59 bc ff 7a b1 bd 06 01 a9 bd
       0.024150796 -0.013261547 -0.08666038 -0.08252148
0002c0 ed f7 0b 3d 6a b9 8c bd ad 29 df 3d e0 24 c0 3b
       0.034171987 -0.068713024 0.10896621 0.005863771
0002d0 0f 18 38 bd 4c 78 d2 3d 0a d1 2d 3e 6d 38 65 3c
       -0.04494482 0.10276851 0.16974273 0.013990504
0002e0 5b 51 45 bd 6a bb eb bd 22 e1 19 be bf c6 0c 3e
       -0.04817329 -0.11510356 -0.15027288 0.1374769
0002f0 07 a5 0f be 82 4e aa 3c 5c ac 8a bd e9 d1 29 3e
       -0.14027797 0.020789389 -0.06771156 0.1658398
000300 73 68 ba 3d 50 3a b2 bd 56 5d 99 3d b1 32 a6 bc
       0.09101953 -0.087025285 0.074885055 -0.020287843
000310 b6 7a d2 bd 7c af c5 bd cd 99 f5 bd bd bd d9 bc
       -0.102773115 -0.096526116 -0.11992226 -0.026579732
000320 aa c5 20 be da 4c 93 bd 97 1f 82 3d dd 70 4c bd
       -0.15700403 -0.07192393 0.063536815 -0.049912322
000330 e1 58 eb bc a6 a9 2f 3d c5 a2 0e be 85 9e 31 3c
       -0.028728904 0.0428864 -0.13929279 0.010841017
000340 3b 07 91 bd 9f 8a 44 bd ea 50 4a 3d 8b 5d 2f 3d
       -0.07081457 -0.047983762 0.049393572 0.04281382
000350 e3 df 2b 3e 8f 99 2c 3e 76 ab de 3d 67 7f 86 3d
       0.16784625 0.16855453 0.10872547 0.06567269
000360 98 14 8e bd cb 91 f3 bd 9f b0 14 be 84 70 8b 3a
       -0.06937522 -0.11893042 -0.145205 0.0010638391
000370 98 5d b5 3d ce 45 33 3e 95 d5 01 be 00 64 89 3d
       0.08855742 0.17507097 -0.12679131 0.067085266
000380 40 be 2b be 60 61 9d bd d3 cc 16 3e 25 7c 15 3e
       -0.16771793 -0.076845884 0.14726572 0.14598139
000390 c5 aa 04 bd a3 a3 29 3e 6b 74 0c 3e b4 60 9d bc
       -0.03238942 0.16566329 0.13716285 -0.01921115
0003a0 6e e9 14 be 18 0d 88 bd dc 44 b5 3d 96 14 0f bd
       -0.14542171 -0.066431224 0.088510245 -0.03493174
0003b0 7f 65 dc 3d 38 8c b2 bd 5d 39 fc bd 66 04 11 be
       0.10761546 -0.08718151 -0.12315629 -0.14161834
0003c0 80 82 1a bd 52 b7 d6 bc 5d 07 ee 3d 55 61 37 bd
       -0.03772211 -0.02621046 0.11622498 -0.044770557
0003d0 a5 39 a8 bc 62 38 0d 3e 89 c6 f8 3d 7b b5 c7 bd
       -0.0205353 0.1379104 0.121472426 -0.097514115
0003e0 ed d2 02 3e 28 be c6 bd 43 f5 09 3e b6 50 e0 3d
       0.12775774 -0.09704238 0.13472466 0.109528944
0003f0 92 b7 a3 bd 8f 3e 50 3c 52 a3 e8 bd 1b ee 44 bc
       -0.07993998 0.012710228 -0.11359276 -0.012019659

conv1x1.bias f4 [64]
000000 ae 72 05 3e e5 78 4b bd 07 29 cf 3d de 8c 95 3d
       0.13032028 -0.04967584 0.10115247 0.07302259
000010 0c 15 71 3d 84 46 d8 3d d0 3c b2 3d 4d 0b 2a 3d
       0.058857962 0.10560325 0.08703005 0.041514684
000020 97 b8 c6 bd f6 a4 3e bd 89 57 14 3e 6f 9b 9d 3d
       -0.097031765 -0.046544038 0.14486517 0.07695662
000030 99 16 a8 3c 02 d0 c6 3a 92 fc c3 3d ae 39 11 be
       0.020518588 0.0015168192 0.09569658 -0.1418216
000040 95 49 7d 3d 24 aa c0 bd 85 1f a7 3d 20 9e f8 bc
       0.06183775 -0.09407452 0.08160309 -0.030348837
000050 14 a8 f2 3d 64 26 a8 bd 14 30 1c bd 8a 5e b3 3d
       0.118484646 -0.082104474 -0.03813179 0.08758266
000060 af 9a 25 3e 06 f4 14 be 7e 4f 20 bb fd 99 96 bc
       0.16172288 -0.14546213 -0.0024461444 -0.018383974
000070 3d a5 32 3e 53 31 d5 bd f5 b4 42 bd 38 a9 77 bd
       0.17445846 -0.104097985 -0.047535855 -0.060464114
000080 7f 81 5c bc fa 60 ab bd ee ff 65 3d 7a 96 0b 3e
       -0.013458609 -0.08368106 0.056152277 0.13631621
000090 77 40 fe 3d 61 9b e2 bd 3b c0 f3 bd 94 b3 9b 3c
       0.124146394 -0.110647924 -0.119018994 0.019006528
0000a0 09 de 83 3d 18 7f 00 3e 79 4f d0 bd 8a a4 33 3e
       0.06438834 0.12548482 -0.10171408 0.17543235
0000b0 cc 00 79 bd 1e fc ee bc 56 1c 2e 3e 55 cb 87 bd
       -0.060791776 -0.029172953 0.17002997 -0.066305794
0000c0 7e b8 39 3e 9c fd c2 3d de 1f 7a 3d d2 35 84 3b
       0.18136784 0.095210284 0.061065547 0.004034736
0000d0 ff 42 1d 3e 8f 11 e1 3d 12 0a 31 3c 35 47 96 bd
       0.15357588 0.10989677 0.010805624 -0.073378004
0000e0 ad a9 0e 3d d7 61 b2 bd 05 14 0b be 19 68 f1 3d
       0.034829784 -0.08710068 -0.13581856 0.11787433
0000f0 e0 cb 21 3d b1 7d 1b be 23 f2 01 be c3 e3 21 bc
       0.03950107 -0.15184666 -0.12690024 -0.009880963

conv2.weight f4 [64, 32, 3]
000000 86 a7 2a bd ea 6a 94 bd 26 f0 ef 3d 18 c6 94 3c
       -0.04166367 -0.07246955 0.117157266 0.018160865
000010 4e 2c a3 3d 4c 9c 03 be 6d af 9d bc 7e e3 8f bc
       0.07967435 -0.12852591 -0.019248689 -0.017564531
000020 58 53 4d bc d2 5d 9d bc 3f 41 a5 bd b7 b3 6d bd
       -0.012532078 -0.019209776 -0.08069085 -0.058032718
000030 53 03 c8 3d f4 ba d1 bb 24 97 ba bc 82 35 ce 3c
       0.09766259 -0.0064004604 -0.022777148 0.025171999
000040 4b c0 94 3d 06 99 21 3d a9 ee 1a bd b9 f7 69 3d
       0.072632395 0.039452575 -0.03782526 0.057121012
000050 a2 ec c7 3c 1d 48 a2 3d a5 4f 82 3d b1 b1 4e bc
       0.024404828 0.07923911 0.06362847 -0.012615607
000060 70 e7 1b 39 36 bb 8c bc 91 55 5a bd 03 b1 c8 3d
       0.00014868169 -0.017179113 -0.05330426 0.09799387
000070 f5 8c dd 3d 0f 4b 3d bb bc 28 ea 3d 4c 0a 47 bd
       0.10817901 -0.002888385 0.11433551 -0.048593804
000080 59 2c 0b bd a3 0d 85 bd d5 25 c4 bd c1 e1 ad 3d
       -0.03397784 -0.064967416 -0.095775284 0.08490325
000090 7b 74 6f 3c 24 8e 33 3d 9b d5 0a be 36 16 0c bd
       0.014615173 0.043836728 -0.13558047 -0.03420087
0000a0 f8 7f d2 3d 0d 73 ca 3d 0d da 33 3d 1e 31 db bd
       0.10278314 0.098852254 0.04390912 -0.10702728
0000b0 3d a5 f4 bb 7c 19 9b bb 8c 28 1b ba 2a a0 cc 3d
       -0.007465987 -0.0047332626 -0.0005918823 0.09991486
0000c0 0c 27 b3 3d b1 2f f4 3d 62 d4 11 3b ef f8 4c bc
       0.08747682 0.11923159 0.0022251834 -0.012510522
0000d0 47 d1 fc bd 3e b6 cf 3d 3b 81 87 bd b6 0f 9d 3d
       -0.12344604 0.10142182 -0.06616446 0.07669012
0000e0 5c 25 df 3d b4 67 b4 3c f0 94 ff 3c 6b 71 83 bd
       0.108957976 0.022022106 0.031198949 -0.06418117
0000f0 3e 65 80 bc f2 25 19 bd 65 81 ff 3d 42 9b a8 bd
       -0.015673276 -0.037389703 0.12475852 -0.08232738
000100 df e0 44 3d c4 5c 2e bd 20 cc b1 bd 3d 4d 59 bd
       0.048066016 -0.042568937 -0.08681512 -0.053052176
000110 fc 64 b5 3d f4 b9 95 3b aa 70 98 bd 8f 6a bc 3c
       0.08857152 0.0045692865 -0.07443364 0.02300003
000120 89 7e 01 ba 7c 98 99 bd 62 22 c9 3d 6f f2 bd 3d
       -0.00049398147 -0.07499787 0.09821011 0.09274756
000130 c2 af 9b bd 23 08 8a bd 89 4e 19 bc 25 4d 8f 3d
       -0.076018825 -0.06739833 -0.009357103 0.06997136
000140 ce f9 d7 bd ef 54 76 bb fc b7 c7 3d 28 e8 1e bc
       -0.10545693 -0.0037587245 0.09751889 -0.009698905
000150 dd 64 72 bd ef 86 d0 bc 47 df 23 3d ed 60 82 3d
       -0.059178222 -0.025454966 0.040007856 0.063661434
000160 96 ca 2f bd 70 7d 9d 3d 48 bd b2 3d 35 1b 31 bd
       -0.04291781 0.07689941 0.08727509 -0.043238837
000170 ca 6f e0 bb 0c 65 ce 3c 98 1a 7c 3d 04 7d f3 bc
       -0.006849264 0.025194667 0.0615488 -0.029722698
000180 f8 1f 15 3c f0 d0 c7 3d 25 c2 97 bc 6d 41 88 3d
       0.00910186 0.097566485 -0.018525193 0.06653104
000190 51 b9 22 3c 64 e5 5b bc 8a 48 d5 3d 04 cf 53 bd
       0.009931878 -0.01342139 0.10414226 -0.051711097
0001a0 a6 af 10 3d fb c5 83 bd 78 78 1a 3d 63 55 3c 3d
       0.03532376 -0.06434246 0.037712544 0.04597987
0001b0 ee bd d9 3c 68 22 e6 3d 23 9c 75 bc f2 2b d5 3d
       0.026579823 0.11237031 -0.014990839 0.104087725
0001c0 a6 fa 50 bd eb e1 79 3d fa c1 a5 bd 65 ae af bc
       -0.051020287 0.061006468 -0.08093639 -0.021445462
0001d0 a3 cc 25 bd ed 37 03 3d cf e9 7b 3d 38 a7 04 bb
       -0.04047836 0.032035757 0.061502274 -0.0020241272
0001e0 15 fb 6c 3b 3a 93 57 bd 77 b4 f2 3c 7e dc b5 bc
       0.0036160399 -0.05263064 0.029627068 -0.022199865
0001f0 8a 29 a4 3d ef bc 9e 39 70 96 ed bc da 81 82 bd
       0.080157354 0.00030276875 -0.029002398 -0.063724235
000200 8e fc 41 bd 1b f5 8c bd 40 b4 a6 3d 84 d3 04 bd
       -0.047359996 -0.06882688 0.08139849 -0.03242828
000210 d0 ae 83 3d 6f c5 e9 bd 98 c8 eb bc 98 d5 aa 3d
       0.06429827 -0.114146106 -0.028782174 0.08341521
000220 e2 90 da bb 6b 02 00 bd fa 36 7d bd e3 42 0a 3c
       -0.0066701034 -0.031252306 -0.061820008 0.008438799
000230 72 1c 35 3d cc ae 0d 3c 99 4a 90 3c 90 d1 c4 bd
       0.04421658 0.008647632 0.017613696 -0.096102834
000240 c0 15 7f 3d ed 49 10 3c c6 44 a6 bd 99 a6 3c bd
       0.0622766 0.008806688 -0.08118586 -0.046057317
000250 81 47 89 3d cd 00 98 ba e7 cd c6 3d 01 46 ec bb
       0.067030914 -0.0011596918 0.097072415 -0.0072104936
000260 c4 41 95 bd 58 f8 80 bd a8 ca e4 3c 33 68 b5 bc
       -0.072879344 -0.06297368 0.027928665 -0.022144413
000270 58 31 b9 bd 5f c5 27 3c be 94 93 bd 52 e8 69 3d
       -0.09042615 0.010239928 -0.07206105 0.057106324
000280 10 8c 8f bd 62 9b 95 bb aa 93 40 bd e0 ab ae 3d
       -0.07009137 -0.004565642 -0.047015823 0.08528876
000290 39 21 89 bd d5 e0 c0 bc c2 50 5a b9 bc 00 82 bc
       -0.0669579 -0.023544708 -0.00020820185 -0.01586949
0002a0 de 83 9d bd d3 e4 a5 3c 7a 1e e9 bd 71 3e af 3d
       -0.07691167 0.020250713 -0.11382766 0.08556832
0002b0 94 8c 8f bd db 1c aa bd 3a 0f 2b 3d 6f 18 a1 bc
       -0.07009235 -0.08306285 0.041762568 -0.019664971
0002c0 af 49 02 3e d0 f5 83 3d 6f 67 59 3c f7 a6 02 3e
       0.1272342 0.064433694 0.013269289 0.12759005
0002d0 92 aa 95 3d c3 44 d8 3d ee f1 cd 3c 70 ce d9 3c
       0.07307924 0.1055999 0.025139775 0.026587695
0002e0 df 38 aa bd 89 81 b9 bb 71 4b 3c 3c ea 65 cd bd
       -0.083116286 -0.0056611937 0.011492596 -0.10029204
0002f0 af 43 dc 3d 1e 1b 8b 3d 30 24 7a 3d f4 bd 25 bd
       0.10755097 0.067922816 0.061069667 -0.040464357
000300 97 db e5 bb 4f a5 7e bd 45 f2 da 3d c8 3c 6f 3d
       -0.0070147025 -0.06216937 0.106907405 0.058407575
000310 c8 2f 07 bd 7a cb 2c 3d 76 f7 30 3d ff b8 a3 3c
       -0.033004552 0.042186238 0.043204747 0.019985674
000320 a0 ef 8c bd 93 6f 38 bd 24 9d 92 bd 07 be 06 3e
       -0.06881642 -0.04502828 -0.071588784 0.13158427
000330 6b 26 17 bd 9a 95 4e bd 65 15 f0 3d b0 36 1b bc
       -0.036901873 -0.05043564 0.11722831 -0.009473488
000340 f5 bd 07 bd a1 d9 a7 bd dd 8e 8a 3d 53 5b 25 bd
       -0.03314014 -0.08195806 0.0676553 -0.040370297
000350 5b 82 d2 3d ce bc 07 bd d6 0a be 3d 02 40 81 bd
       0.102787696 -0.033139043 0.092794105 -0.06311037
000360 96 04 bd 3b f4 f8 e7 3d 26 a2 bb 3c 9f 5f d3 3d
       0.005768369 0.11326781 0.022904467 0.10320973
000370 0c a8 c0 3d 96 42 c4 bd e7 44 87 3d 4e ec d4 3c
       0.094070524 -0.09583013 0.06604939 0.025991585
000380 f4 25 d1 bb be 0a b0 3d 36 45 d6 bb 3c 94 ea 3c
       -0.006382698 0.08595799 -0.0065390123 0.028635137
000390 aa a1 c8 bd a5 81 a6 3b 90 b5 f3 bd 9c 9f 08 3d
       -0.0979646 0.005081373 -0.11899865 0.03335534
0003a0 57 2d ec bd 79 60 9e ba bd 3f 89 bc 9f bf af 3c
       -0.115320854 -0.0012083194 -0.016754026 0.021453677
0003b0 8d a1 ba bd 9e dd d5 3d 5a b0 12 bd bb 67 d6 bc
       -0.091128446 0.10442661 -0.035812713 -0.02617251
0003c0 56 45 a1 3b c7 db d3 3d 1d ba 91 3d d2 31 2a 3c
       0.0049215956 0.103446536 0.071155764 0.010387855
0003d0 39 af 27 3d f3 e6 ca 3c 30 f2 c8 bd e6 fa 4a 3d
       0.04093859 0.024768328 -0.098118186 0.04955568
0003e0 72 70 06 bd 12 ae 8b bd 73 eb 63 bd 38 ac 9d bd
       -0.03282208 -0.06820311 -0.055644464 -0.07698864
0003f0 13 e8 8e bd fe a0 cf bd c2 e2 58 bd 8f 64 81 bd
       -0.069778584 -0.10138129 -0.052950628 -0.06318008

conv2.bias f4 [64]
000000 c1 b6 30 bd a7 23 6e 3b 43 72 cb 3b 46 15 31 3d
       -0.043143038 0.0036337168 0.0062086894 0.04323318
000010 c5 ac 9e bd 2e a4 34 3d 2b 45 6e bc 1a d5 ce 3d
       -0.07747797 0.044101886 -0.014542858 0.1009924
000020 3f 37 c9 3d 4a 17 be bc 6f 4c 91 3d 35 76 05 3d
       0.098249905 -0.023204464 0.07094657 0.032583434
000030 ff c7 63 3d 83 dc 53 3b 24 18 82 3d 01 7b b2 3d
       0.055610653 0.003232748 0.06352261 0.087148674
000040 30 af f5 bc a5 3a 8c bd 34 ea a4 bd 88 6b d4 3d
       -0.029990762 -0.06847123 -0.08052483 0.103720725
000050 35 2e ec 3c 92 ba 7e 3d 78 95 f2 ba d4 28 e8 bc
       0.028830627 0.062189646 -0.001850768 -0.02833978
000060 e3 fa 34 3d 2c 53 98 bc 89 93 10 bd 9b 4d 5b bd
       0.044184577 -0.018594347 -0.03529695 -0.053540807
000070 03 d4 57 bd 05 cf e6 3d 8e cd 89 3d 9d 88 f4 3c
       -0.052692425 0.112699546 0.067286596 0.029850299
000080 24 e1 d9 bb fe ca a3 3d 79 fc a0 bc 50 d3 83 bc
       -0.0066491533 0.07997702 -0.019651638 -0.016091973
000090 57 20 3f 3d 28 44 4a bd de ed 50 bd 2e e6 24 3d
       0.0466617 -0.049381405 -0.051008098 0.04025858
0000a0 16 b9 ff 3c e8 f2 f4 3d 9b e8 a0 3d 5b 0f 69 3d
       0.031216186 0.11960393 0.07856866 0.05689941
0000b0 16 94 db 3d 51 3c 03 3d 97 96 21 bd 24 71 0a bd
       0.107216045 0.032039944 -0.039450254 -0.033799306
0000c0 ac 10 84 3d c4 2f 89 3d 56 68 78 bc 30 b9 2f 3d
       0.064484924 0.06698564 -0.015161594 0.042901218
0000d0 75 43 a1 3d 76 e1 f8 bc d1 e8 df 3d 21 f6 af bd
       0.078741945 -0.030380946 0.10933078 -0.08591867
0000e0 93 c2 ad 3d 18 d1 8a 3d 76 81 a0 3d e2 1c 38 bd
       0.08484378 0.06778163 0.07837193 -0.04494942
0000f0 c9 cd 82 bd 9b e3 b9 3d 4d d8 6d 3d 9c 13 81 3d
       -0.06386907 0.090766154 0.05806761 0.06302568

fc1.weight f4 [128, 832]
000000 ef 40 a2 3c 77 e1 07 3c da 20 46 bc d2 35 0d 3d
       0.019806353 0.008293501 -0.012092793 0.034475155
000010 8f c0 6d 3c dd a7 ef bc 5c ac 1e ba 03 f6 06 bb
       0.014511242 -0.029254848 -0.0006052905 -0.0020593412
000020 d6 92 11 3d 00 e0 42 bc aa 71 33 bd 56 7d 53 3c
       0.035540424 -0.011894226 -0.04380957 0.0129083
000030 4f 68 fd bc f7 b7 87 bc d5 b6 12 bc 5f 29 30 bb
       -0.030933527 -0.016567213 -0.008954723 -0.0026880128
000040 c2 df 45 3b ca f2 ae bc 34 7d 00 bb fa f7 a5 3b
       0.0030193185 -0.021356005 -0.0019605877 0.0050649615
000050 07 3b eb 3c 54 75 8a bc 36 80 cb bc f7 2e c3 3c
       0.02871467 -0.01690165 -0.02484141 0.023826106
000060 3b 9d d6 bc cb 95 c2 3c b1 fe fa 3c 30 e2 d6 3a
       -0.02619802 0.023753067 0.030639024 0.0016394313
000070 b7 cc c6 3c 74 61 99 3c 0e e9 bd 3c 45 b8 21 3c
       0.024267538 0.018723227 0.023182418 0.009870593
000080 0d 1b 0b 3d 05 79 97 3c 40 a4 da 3c 54 fe b6 3c
       0.033961345 0.018490324 0.026689649 0.02233807
000090 33 71 8e bc c5 a7 94 3c 8b 7a 25 3d 91 29 69 bc
       -0.017387962 0.018146405 0.04040007 -0.014231102
0000a0 c8 e6 aa 3c 67 23 1e bc 29 01 cc 3c d1 4f eb bb
       0.020861998 -0.009651995 0.024902897 -0.0071811457
0000b0 72 57 eb 3b b7 ef d2 3b 15 ed 53 bb 97 43 c5 3c
       0.007182055 0.0064372676 -0.0032337357 0.02408008
0000c0 03 bc 20 3d ae ac 62 3c a4 7c f2 ba 3e b1 a1 3c
       0.039241802 0.013835115 -0.001850028 0.019737836
0000d0 b7 7a b4 bb da ac 1d bc d1 03 ea bb cf a4 c5 3a
       -0.005507793 -0.009623731 -0.007141568 0.0015079024
0000e0 ce 3f 00 3b 26 5b 17 3c 08 ca 8c bb 65 bb d4 bb
       0.001956928 0.00923804 -0.004296545 -0.0064920657
0000f0 33 db 83 ba df 33 15 bc f4 c2 aa ba 7e fa 6a 3b
       -0.0010059833 -0.009106605 -0.0013028071 0.0035854871
000100 09 0f 39 ba 6d 1a f2 3c cc a6 01 bb 64 d4 ae 3c
       -0.00070594304 0.029553616 -0.0019783257 0.02134151
000110 e4 1a 97 bc a3 a3 8c bc 00 83 64 bb df e5 f1 3c
       -0.01844544 -0.017167872 -0.003486812 0.029528556
000120 ee 0f 1f 3d 37 74 e7 bb 16 8f 62 ba 6b 69 da 39
       0.03883355 -0.0070634144 -0.0008642537 0.00041658743
000130 b1 d1 61 3c 34 dc 8f 3c 4f 36 34 bc 30 22 9e bc
       0.0137829045 0.017561056 -0.010999276 -0.019303411
000140 30 17 bc bb 81 ac b5 3b f5 bb b2 bb fd 68 3a 3c
       -0.005740069 0.0055442457 -0.005454535 0.01137757
000150 87 c8 b3 bc ea 7c 3b bb c9 c6 13 3c a7 b0 8f 3c
       -0.021946205 -0.002860839 0.009019562 0.01754029
000160 14 7c fc bb 53 e7 2d 3c 56 3c db 3c 51 44 c0 3c
       -0.007705221 0.010614234 0.026762169 0.023470076
000170 a2 3a d7 bc 10 e1 8f bc 33 be 89 3c 83 93 13 3c
       -0.026273075 -0.017563373 0.016814327 0.0090073375
000180 8d da c0 3c 63 47 0e 3d 3e 3f 20 bc 2d 42 b7 bb
       0.023541713 0.03473605 -0.009780703 -0.0055926056
000190 0c 49 0e bd 13 da 58 3c 36 66 25 bd 7b d0 a2 bb
       -0.03473763 0.013235587 -0.04038068 -0.0049687005
0001a0 b0 68 01 bd 9e 16 9e bb 6a 78 95 bc b8 c0 07 3c
       -0.03159398 -0.0048244735 -0.018245894 0.008285694
0001b0 ff ff 16 bc 4e c3 6d ba 78 8b 31 bc a8 34 c5 bc
       -0.009216308 -0.0009069935 -0.010836475 -0.02407296
0001c0 f5 e1 93 3b 7e e3 8d bc 7b a1 08 bc f4 41 2f bd
       0.00451302 -0.01732039 -0.008339281 -0.042787507
0001d0 c2 a9 89 3c 75 c7 7c bb a8 54 00 3b e5 f7 e0 3c
       0.01680458 -0.0038571034 0.001958171 0.027461955
0001e0 3a b4 99 bc 9b 96 02 3d 86 9f f0 3c 78 81 12 3c
       -0.018762697 0.03188191 0.029372942 0.008942001
0001f0 07 80 e2 bc 81 9f 82 bb 7b 0e 5d bb db b3 6d 3b
       -0.027648939 -0.0039862995 -0.0033730555 0.0036270532
000200 44 b6 15 bc 24 68 13 3d d4 58 04 bc a9 6f a6 3c
       -0.009137694 0.035987988 -0.008077819 0.020316916
000210 57 6a ff bb 1d b5 9f 3b 1a 5d b3 3a 88 15 64 3c
       -0.007794659 0.0048738853 0.0013684363 0.013921149
000220 62 f1 52 bc 9a 84 b0 3c c7 d8 d1 bc a8 6c 1a 3d
       -0.012874933 0.021547604 -0.025616063 0.03770128
000230 97 37 b4 3c 84 66 69 3c 0c 9f c8 bb 6a 27 85 bb
       0.021999164 0.014245633 -0.0061224755 -0.0040635364
000240 b8 ed b0 3c c5 95 58 3c bb 57 c1 3c 51 e5 58 3c
       0.021597728 0.013219302 0.023601403 0.013238267
000250 68 2d ad 3c 68 be ac bc 86 56 e7 bb 14 a1 a5 bb
       0.021139815 -0.021086887 -0.007059875 -0.0050546024
000260 f5 9d 05 3c 1f b2 64 3c cb 83 db bc f2 e0 07 3d
       0.008155336 0.013958483 -0.026796242 0.03317351
000270 66 ed 1e 3c e3 54 cc 3a d4 ce 88 3c ab 3a a7 bc
       0.009700155 0.0015589263 0.016700186 -0.020413717
000280 0b 5d 18 bc 85 86 0e 3d 45 11 a5 3a ee 73 9a bc
       -0.009299527 0.034796257 0.0012593648 -0.018854108
000290 26 83 2b bb b9 6a 05 3d 6d ad 78 bc 91 db 09 bc
       -0.00261707 0.03257248 -0.015178067 -0.008414165
0002a0 76 7f 1e bc 4a c1 fa 3a b3 03 2b b9 db e0 4a 3c
       -0.009673944 0.0019131091 -0.00016309209 0.012382711
0002b0 f3 62 92 3c b5 bf 74 bc ca a1 df b7 69 39 9e bb
       0.017869448 -0.014938285 -2.665901e-05 -0.004828621
0002c0 0f ad 0d bc 5d 96 17 3d 8b ec a1 b9 29 ad bd bb
       -0.008647217 0.037008632 -0.0003088455 -0.0057884646
0002d0 30 81 ac bc a0 08 fa bb 64 3b 0e bc 12 ea d2 bc
       -0.021057695 -0.0076304227 -0.008681152 -0.025746379
0002e0 43 33 b5 bc 11 bc 14 3d 0b 68 f7 3c 95 92 2f bb
       -0.02211917 0.036312167 0.030200979 -0.002679025
0002f0 0e d0 4b bc 50 58 88 bc 9f a6 02 3d 4a a0 40 bc
       -0.012439741 -0.016643673 0.031897184 -0.011756966
000300 b0 20 2d bc 54 4c 01 bd 25 de d0 3c 90 c4 6b bc
       -0.010566875 -0.031566933 0.025496552 -0.014390126
000310 98 6e 55 3c 8b e0 9c bc 2d 8b ab 3b 45 4f 95 bb
       0.013026856 -0.01915004 0.005235097 -0.004556569
000320 ec dd b2 bc d4 87 cb b9 2e 98 85 3c 7c f1 8e 3c
       -0.021834336 -0.00038820377 0.016307916 0.017449133
000330 87 c3 a5 3b 29 30 80 bc bd 60 7b 39 6e 52 20 3d
       0.005058709 -0.015647965 0.00023973263 0.03914111
000340 3a 8c 41 3c a9 f5 50 bb 9a a9 dc bc f8 bb 0b bc
       0.011813218 -0.0031884706 -0.026936341 -0.008528702
000350 56 6c 23 bc 7a 48 f1 3c 1f 22 d3 bc 87 f9 8f 3c
       -0.00997456 0.029453505 -0.025773106 0.017575039
000360 a9 9c ee 3c b3 b6 cd 3b 4e 06 29 bc 20 96 f9 3b
       0.029127436 0.006277883 -0.010316445 0.0076167732
000370 b2 e3 8d 3c 98 e6 01 3c cf f1 f8 3b b9 b7 c9 3c
       0.017320488 0.007928513 0.007597185 0.024623739
000380 7d 3f 8b 3c 14 06 ff bb b2 e8 57 3a 4d eb 69 3b
       0.016998047 -0.007782707 0.00082362734 0.0035693229
000390 3a 01 01 bc d1 16 16 3b 13 62 84 bb c0 be 05 3c
       -0.007873828 0.0022901783 -0.0040400117 0.008163154
0003a0 30 a6 a3 3b d1 9c 99 bc 89 5d 52 3c d8 62 a1 bb
       0.0049941763 -0.018751534 0.012839683 -0.004925113
0003b0 72 20 09 3d 64 68 8a 3c 10 23 00 bc b0 1d af 3c
       0.033478208 0.01689548 -0.00782086 0.02137646
0003c0 26 5d c3 3c 13 18 d0 bc 5a 86 1e 3c 17 79 80 bb
       0.023848128 -0.025402104 0.009675587 -0.003920685
0003d0 93 25 10 bd d0 06 fa 3c 42 8e ea 3b 7d d9 39 3c
       -0.035192084 0.030520827 0.0071580717 0.011343357
0003e0 83 ec ca bc b1 01 a9 bc 19 50 19 3d f7 60 a4 bc
       -0.02477098 -0.02063069 0.037429903 -0.020065768
0003f0 c6 5d e7 3a c9 b0 a1 bc 10 a4 6f bc 06 83 cf bb
       0.0017651848 -0.019737618 -0.014626518 -0.006332758

fc1.bias f4 [128]
000000 99 fb cb bb ad eb ae 38 6a e5 0c bd 84 ab 03 bd
       -0.006225061 8.3408646e-05 -0.034398474 -0.032145992
000010 8f 41 e7 bb 55 90 2f bc 43 4b 2b 3c 69 c6 52 3b
       -0.0070573757 -0.010715564 0.0104549555 0.0032161719
000020 b8 13 24 bc 94 49 0d bd a1 f5 cc bc 3c b7 36 3d
       -0.010014467 -0.034493998 -0.025019469 0.04460834
000030 5f dd 7c 3b e9 c3 0c 3d 7b 3e 0d 3c 16 2e 98 3c
       0.0038584096 0.034366522 0.008620854 0.018576663
000040 95 3c 6c bc 33 76 c9 3c 81 27 06 3d b5 0f 84 3c
       -0.014418741 0.024592495 0.032752518 0.016120771
000050 48 90 66 3c e0 d7 88 bb 92 31 8a 3c 6b 87 ca bc
       0.014072485 -0.004176125 0.01686934 -0.024722775
000060 2d ea a3 bc ee 62 fd 3c bd 21 87 3c 11 84 30 3c
       -0.020009125 0.030930962 0.01649558 0.010773675
000070 fe 7f 01 bd d6 c2 de 3c 55 9c 8f bc 4b 32 45 3c
       -0.031616203 0.027192514 -0.0175306 0.012035917
000080 04 5a 3c bc 53 20 b6 3c d4 0c e5 bc 5d 06 20 3c
       -0.011496071 0.02223221 -0.027960218 0.009767142
000090 0c 61 c9 bb df 0e df 3c 9c 44 ef bc b3 ae cb bc
       -0.006145602 0.02722877 -0.02920752 -0.024863577
0000a0 2a fe d2 bc 2a 9c e5 bc 77 08 6e bc 9d 48 5c 3c
       -0.02575596 -0.028028566 -0.014528385 0.013445047
0000b0 16 81 4d 3c 59 8b 87 bc 32 15 9b bb 83 5c 35 bc
       0.0125429835 -0.016545938 -0.0047327513 -0.01106942
0000c0 fe 04 53 bb 04 ef af 3b 81 2f f6 bc 86 07 78 bc
       -0.003219902 0.005369069 -0.030051949 -0.0151385125
0000d0 4c 72 a5 3b 66 6f 26 3c d4 2b af bc 0f 1b c0 39
       0.0050490256 0.010158395 -0.021383204 0.00036641254
0000e0 8b fc 90 3c db 3c b5 3a 13 da fe bb c8 cd f4 3b
       0.017698547 0.001382734 -0.0077774613 0.00747082
0000f0 98 c7 bc bb b0 bd 46 3c c5 e0 fe 3c c0 b0 8e bb
       -0.005761098 0.012130186 0.031113038 -0.0043545663
000100 96 46 e6 3b cd 8f 0e bd 2d ce cb 39 27 3e 0d 3c
       0.0070274575 -0.034805108 0.0003887279 0.008620775
000110 30 88 e3 bb c9 4a 61 3c 97 83 b6 bc 3e 32 3f 3c
       -0.006943725 0.01375074 -0.022279544 0.0116696935
000120 b6 77 11 bc 2c e8 26 bc 58 af 0e 3d 59 31 94 bb
       -0.008878639 -0.01018719 0.03483519 -0.0045224843
000130 95 b6 00 3c e7 25 6d bc 1e 2a 04 3d 13 1a d8 3c
       0.007856031 -0.014474369 0.03226673 0.02637962
000140 37 d2 4f bc a7 cb 90 3c c4 f1 10 3d 60 89 8f bb
       -0.0126843965 0.017675234 0.035386816 -0.00438039
000150 9a cb e0 3c 34 65 94 bb ee e5 21 3d 94 e3 48 3c
       0.027440835 -0.004528666 0.03952592 0.01226129
000160 27 dd 25 3c 7e 81 cf bc bb bf 2a bc 9f f7 9c 3c
       0.010123528 -0.025330301 -0.010421689 0.019161044
000170 21 2a d4 bc 60 78 0f 3b 7a 09 b0 bb 24 9f cf bc
       -0.025898995 0.0021891817 -0.0053722234 -0.025344439
000180 5b 22 be 3b 26 37 d7 3c 60 c9 4a bc ff 94 17 3c
       0.0058024353 0.026271414 -0.012377113 0.009251832
000190 5c 7c 55 bc 73 d5 95 bb cf f5 06 bd 73 5e 22 bc
       -0.013030138 -0.0045725643 -0.032949265 -0.009910214
0001a0 25 05 ce 3c 41 76 05 3d e0 be e3 3c 24 93 a0 bc
       0.025148937 0.03258348 0.027800977 -0.019601412
0001b0 2c d5 59 bb 8a 46 58 3c 82 03 99 3b 61 89 ef bc
       -0.0033238633 0.013200412 0.0046696076 -0.029240312
0001c0 ee 8f c2 3c 9a e0 8b bc 01 1c 5e 3c bb c3 89 bc
       0.023750272 -0.017074872 0.013556481 -0.016816964
0001d0 07 52 d0 3c 81 2f a6 bc 18 c0 1d bc 71 1c 99 bc
       0.025429739 -0.020286324 -0.009628318 -0.01869032
0001e0 20 99 f3 ba 9b ca ea 3c 33 32 9e 3c 94 74 e6 bc
       -0.0018585064 0.028661063 0.019311046 -0.02813176
0001f0 c6 f9 0a 3c a5 0b 2d bc 8f c0 02 bd e7 1e b3 3c
       0.008482402 -0.010561858 -0.03192192 0.021865321

fc2.weight f4 [4, 128]
000000 fc 3c 95 bd 28 b4 bc 3d 78 fb aa bd e2 24 58 bd
       -0.072870225 0.092140496 -0.08348745 -0.05276955
000010 e7 da e5 bd 7d 8e f5 3c 83 27 e0 bd 0b 11 c2 3c
       -0.11223393 0.02997517 -0.10945036 0.023689767
000020 a1 55 47 bd 61 18 cb bc c0 8b 14 bb f0 7e a5 bc
       -0.048665646 -0.024791898 -0.0022666305 -0.02020213
000030 6e 30 9e 3d dc 0c b0 3d c6 f7 be 3d f0 73 b9 3c
       0.07724081 0.08596203 0.09324603 0.022638291
000040 36 ff 2d bd 2c 37 d8 3d 91 54 bb bd 33 2b af bd
       -0.042479716 0.10557398 -0.09146989 -0.085531615
000050 8a e3 f3 bd 44 56 ff bc bd 8c 27 bd f5 c1 49 3d
       -0.11908634 -0.031169064 -0.040905703 0.049257237
000060 d9 d7 8b bd 58 7e bb bb db ab cb bc 74 ff 8e bd
       -0.06828279 -0.0057218485 -0.02486222 -0.069823176
000070 f9 ad c9 3d 12 90 13 3c 78 05 e6 bd 76 bf 8e 3c
       0.09847636 0.009006517 -0.11231512 0.01742528
000080 b2 ac 99 bd 56 c3 b0 3d 55 49 de bd 18 93 5b 3c
       -0.07503642 0.086310074 -0.10853831 0.013401769
000090 84 5e 29 3d e7 48 8f bc 46 1f a9 bc 58 15 ca bb
       0.041349903 -0.017490817 -0.020644795 -0.006167095
0000a0 5c 57 5d 3c 42 24 a0 3d 6b 59 9e bd fc ae 8a bc
       0.013509598 0.07819416 -0.07731899 -0.016929142
0000b0 ae 12 04 bd 25 b2 bf bd 08 55 dd bd 96 37 f7 3b
       -0.032244377 -0.0936015 -0.10807234 0.007544468
0000c0 27 6c bf 3c 41 35 b4 bd fc a6 99 bd 41 5d ec bd
       0.023367 -0.0879922 -0.07502553 -0.11541224
0000d0 c1 67 40 bd 74 0e 87 3d cf 52 ba 3d b8 fd 55 3d
       -0.046973947 0.065945536 0.09097826 0.05224392
0000e0 a1 d7 2b bc d9 6b eb 39 24 00 40 3d 54 d7 b9 bd
       -0.010488422 0.00044903046 0.046875134 -0.09074274
0000f0 49 ed 62 bc fb 79 00 bc 40 33 af 3b 09 18 e5 bd
       -0.0138505185 -0.007841582 0.0053466856 -0.11186225
000100 f8 5c 8d bd 95 42 7d 3d d8 85 d1 3d 28 17 bb bd
       -0.06902498 0.061831076 0.10230607 -0.09135276
000110 78 c9 e0 bd f8 1c 0e bb bf 85 cb bd 82 6c 8c bd
       -0.10975927 -0.0021684747 -0.099376194 -0.06856634
000120 4e af 48 3d e7 3c 5b 3d 3d 5f 66 3d f0 ca 56 bc
       0.04899531 0.053524878 0.05624317 -0.0131099075
000130 51 06 c2 bd 06 52 ef 3a e9 05 9b bd 56 b6 5c 3d
       -0.09473861 0.0018258698 -0.07569487 0.053884827
000140 aa 4f bc bc 16 a9 98 bd ec 18 fa bc 61 8b 72 bd
       -0.022987206 -0.074541256 -0.030529462 -0.059214953
000150 e2 17 10 bd 2f 53 b1 3d 62 11 3a bd 0b 1d 1e 3a
       -0.035179026 0.08658444 -0.045426734 0.00060315494
000160 54 e7 44 bc c0 9e b3 bd 4e c8 24 bd 6e 88 3d bd
       -0.012018044 -0.087705135 -0.040230088 -0.046272688
000170 10 80 0e 3d 78 23 d2 3d 08 a4 94 3d d8 e8 da bd
       0.0347901 0.102606714 0.07257849 -0.10688943
000180 44 6a 60 bd 5d 07 2c 3b d1 02 15 bd 6c 64 d9 bd
       -0.054788843 0.0026249506 -0.03637964 -0.10614857
000190 d1 b3 0e bd cf 2d 46 bd cc a0 36 bc 60 b7 4c bd
       -0.034839455 -0.04838353 -0.011146735 -0.049979568
0001a0 8b bd e0 bd 88 9f b1 bd 53 1c bd 3d 69 f5 b8 bc
       -0.109736525 -0.08673006 0.09233918 -0.022577958
0001b0 36 8c f7 3c 23 a2 c9 3b 39 35 f6 bd eb ec b2 3b
       0.030218225 0.0061533614 -0.1202187 0.0054603717
0001c0 08 fb c7 3c ff 12 6e 3d e2 91 f5 3c 9e 14 e3 b9
       0.024411693 0.058123585 0.029976789 -0.00043312175
0001d0 82 87 cb bd 6f b0 ba 3d 73 9c cf 3d a1 bf 92 3d
       -0.099379554 0.09115683 0.10137262 0.071654566
0001e0 2b 6e 22 bd 89 a0 8c bd a9 af ec 3c 12 ec 73 bd
       -0.039655846 -0.06866557 0.028892355 -0.059551306
0001f0 0b f4 e1 3c 09 0f d7 3d f2 07 d1 3d cb 88 d0 3d
       0.027582189 0.105009146 0.102065936 0.10182341
000200 46 34 77 bd fc 2c 51 bd af 2f 5e bd d3 bf b0 3d
       -0.060352586 -0.05106829 -0.054244693 0.086303376
000210 c5 68 c2 bd bc 42 87 3d 8f 30 a5 3d f7 81 15 3c
       -0.094926395 0.066045254 0.080659024 0.009125224
000220 83 f5 59 3d 75 17 7c bc f7 ae c5 bc 2d 04 a0 bd
       0.053212654 -0.015386452 -0.024131281 -0.078132965
000230 ee b1 7a 3c 46 c8 f8 bc cd 8e 3f 3d 0b 10 13 bd
       0.015301211 -0.030368935 0.046767045 -0.03590397
000240 44 54 ca 3d 73 75 60 bd 4e 2c 96 bd ce 88 9b bd
       0.09879354 -0.05479951 -0.07332669 -0.07594453
000250 a1 d1 9c bd 0a 07 b7 3d 33 4a 3c bd 93 ab 6c 3d
       -0.07657171 0.089368895 -0.0459692 0.057780813
000260 ae 92 e7 3d 35 02 cc 3d c3 26 a9 3d e9 dc f3 3d
       0.11307274 0.099613585 0.08259346 0.1190737
000270 99 08 c4 3d 27 58 9f bd 46 95 73 3d bd 25 df bd
       0.095719524 -0.077804856 0.05946853 -0.1089587
000280 30 9f 11 3d 08 50 37 bc 4a 70 61 3d f6 80 e8 bd
       0.035552204 -0.0111885145 0.055038728 -0.11352722
000290 e6 a3 78 bd 77 85 cf 3c f6 e4 e0 bc 4a d7 16 3c
       -0.06070318 0.025332196 -0.027452927 0.009206602
0002a0 f0 0b 92 3d 01 59 9f bd 4a 77 a8 3c d1 12 a4 bd
       0.07131183 -0.07780648 0.020564694 -0.080114014
0002b0 d6 4f ca 3d 4b c8 32 bd 9c da 9a bd 5e 82 bc bb
       0.09878509 -0.043648046 -0.07561228 -0.0057528457
0002c0 df b3 c4 bb b2 66 40 bd 3f ee 93 3d 49 94 93 3d
       -0.0060028876 -0.046972938 0.07223176 0.072060175
0002d0 22 db f6 bd 5a 52 0f bd 1d 87 e3 bd 44 3c bf bd
       -0.12053515 -0.034990646 -0.11109755 -0.09337667
0002e0 55 6b 01 bb 33 62 7f bd 44 08 7b bd 90 f7 77 bd
       -0.0019747813 -0.06234951 -0.06128718 -0.06053883
0002f0 7e dd e4 bd 1b 46 f2 3c 26 69 14 3d 09 41 8d 3d
       -0.11175059 0.029574445 0.03623309 0.0689717
000300 1b ea cb bd 86 a5 42 3d 71 da 99 bd ea 06 50 bd
       -0.099567614 0.047521137 -0.075123675 -0.050787844
000310 a3 44 bf bd 00 fb 19 3d 53 3c 89 bd 6d fb d9 bd
       -0.09339263 0.037592888 -0.06700959 -0.10643659
000320 c1 4d a1 bd 6b 7a 0a 3d 1d 01 87 bd a9 5d 58 3d
       -0.078761585 0.033808153 -0.06592009 0.052823696
000330 20 9f 4e bd 0a d7 a8 bb 2d a7 be bd 89 a1 6b bd
       -0.050444722 -0.005152588 -0.0930923 -0.0575271
000340 be ca f5 bd f7 27 a8 3c d9 25 ea bd b5 13 44 bd
       -0.12001561 0.02052687 -0.11433 -0.047870357
000350 9d b6 eb bd 58 c3 4c 3d 7d d1 bc bd 57 e2 25 bc
       -0.1150944 0.04999098 -0.09219644 -0.010124764
000360 72 a7 c1 3d b5 64 e0 bc 0b ce c0 3d b0 6c 90 3b
       0.09455766 -0.02739177 0.094142996 0.004407488
000370 65 97 24 bd 3f 3c d8 bd 9f 81 9e 3c 44 a7 8a 3d
       -0.040183444 -0.10558366 0.019348918 0.06770185
000380 fa 7a c0 3c a8 87 a4 bd 32 3a 39 3d 05 13 a0 bd
       0.02349614 -0.08033687 0.045221515 -0.07816128
000390 13 8e 82 3d 26 2c d0 bd 64 4f 3a 3c 47 1e 97 bd
       0.06374755 -0.10164671 0.011371467 -0.07378822
0003a0 82 e4 97 3d e7 48 f4 3d d3 5b 46 3c 0e ca a9 3d
       0.07416631 0.119279675 0.012106854 0.08290492
0003b0 0f 07 92 bd 64 2f 6f bd 79 af da 3d 17 68 07 3d
       -0.071302526 -0.058394805 0.10678 0.033058252
0003c0 b6 28 8e 3c 98 27 66 bd e4 1c 5a bd 73 5a 36 3d
       0.017353397 -0.056190103 -0.05325021 0.044519853
0003d0 e1 61 f1 3d d2 c7 fd 3c a8 f9 94 bd 43 f6 b3 bb
       0.11786247 0.03097907 -0.07274181 -0.005492003
0003e0 31 d6 8b 3d 06 21 75 bd 29 81 d9 bc e0 5b 21 3d
       0.06827963 -0.059845947 -0.026550846 0.03939426
0003f0 7c c6 9b 3d 57 33 34 3d 0a 9d d1 3d 9f cf 8b bd
       0.07606217 0.043994274 0.10235031 -0.0682671

fc2.bias f4 [4]
000000 75 75 91 bd 4f 77 a4 3d ee 5a 5f bd f2 4c 87 3d
       -0.07102481 0.08030569 -0.054530077 0.06606473
